results/unetlite_recon.pth (torch, 107725 bytes, 15 tensors)

enc1.0.weight f4 [16, 1, 3, 3]
000000 d6 38 88 3e 3f e0 36 3e 6b f6 31 be 86 16 51 3e
       0.26605862 0.1785898 -0.17379157 0.20418748
000010 3a b4 18 be db a2 99 3e 11 cb 5d 3e 1a b9 e3 bc
       -0.14912501 0.3000706 0.21659495 -0.027798224
000020 29 17 94 3e a5 7c 2e be 36 24 42 3e 63 a7 36 be
       0.2892392 -0.17039736 0.18959126 -0.1783729
000030 7e 0a 25 be 5b 3b 2c 3d 83 5d a9 3e 25 f6 c3 bd
       -0.16117284 0.042048793 0.33079156 -0.09568433
000040 df f1 e5 3d 9c bc 3e 3d 93 74 43 be 67 5f 09 be
       0.11227774 0.04656659 -0.19087438 -0.134153
000050 4b 60 71 3e 3d bb 9c be 77 01 cb 3d d1 13 34 be
       0.23571889 -0.306116 0.09912389 -0.17585684
000060 b0 3c 2a 3e 69 e4 a7 be ae 3f 1b 3e d1 87 96 be
       0.16624713 -0.3279145 0.1516101 -0.29400495
000070 59 ab b1 3e 0e f2 76 3e c2 bf 60 3d 1c f6 47 3d
       0.3470104 0.24115774 0.054870375 0.048818693
000080 45 71 2b 3e b6 37 d7 3d d7 9b bf 3d 6a 46 8c be
       0.16742428 0.10508673 0.09355896 -0.27397472
000090 59 bc 89 3e be 1c ae be 8f 1b 13 be 2d 41 12 3b
       0.2690151 -0.34006304 -0.14365982 0.002231668
0000a0 39 e5 5a 3d 55 6c bd be ce 83 85 3e 2a fc 37 3e
       0.05344126 -0.36996713 0.26077121 0.17967287
0000b0 58 55 85 be 46 0b 12 be 91 35 66 3d f5 f3 a7 3e
       -0.26041675 -0.14262113 0.05620343 0.32803312
0000c0 b8 50 63 3e 8c 47 97 3e 2a 3c 44 bd 98 48 b8 3e
       0.2219876 0.29546773 -0.04790894 0.35992885
0000d0 90 89 80 be dd 00 88 be 7c ba b3 be b2 1e 49 3d
       -0.25104952 -0.2656316 -0.35103214 0.04910154
0000e0 94 2a ec bd 41 8c 62 3e 7e d2 ac 3d 4f 27 ed 3d
       -0.11531559 0.22123815 0.08438586 0.11579763
0000f0 01 c6 49 be 9b bb 32 3e 0c 3a 8e 3e 9b 5a 1e be
       -0.19704439 0.17454378 0.2777866 -0.1546425
000100 15 1b 8d be a3 6d 52 be f6 88 63 3e c2 a1 9e bd
       -0.27559724 -0.20549636 0.22220215 -0.077456966
000110 35 57 6a 3d 5e 8a 3a be 4f 22 da 3d 58 97 bf 3d
       0.057212073 -0.18216845 0.10651075 0.093550384
000120 0c 92 d3 3d a1 19 06 3e b2 17 ae 3e e4 82 a8 bd
       0.103305906 0.13095714 0.34002453 -0.082280904
000130 87 cf 13 be d4 cf 0f 3e 7c a6 4d 3e 12 98 7a be
       -0.14434634 0.14044124 0.2008304 -0.24472073
000140 06 f4 86 3e 28 dc 1f 3e 2b 4e 8d bd 1f 14 35 bd
       0.2635805 0.15611327 -0.06899675 -0.044208642
000150 e5 49 aa bd 47 50 8b be b3 52 a1 be e8 30 58 be
       -0.083148755 -0.27209684 -0.31508407 -0.21112406
000160 0c 45 05 be c9 4d 35 bb 16 79 08 be 29 b4 0a be
       -0.1301462 -0.0027664772 -0.1332744 -0.13545288
000170 0e a1 03 3e 22 96 e3 bc 01 f7 b4 3c 9a 3f 11 be
       0.12854406 -0.02778155 0.022090437 -0.14184418
000180 05 b9 b5 3e 6a 62 43 3e 38 cd 81 3e c8 32 33 3e
       0.3549272 0.1908051 0.25351882 0.1749984
000190 0e a0 1b be 2b 63 c0 3c 44 89 36 3e ea e6 f7 bd
       -0.15197775 0.023484787 0.178258 -0.1210459
0001a0 41 bb 13 be 3a 3e b7 bd 4c 4b 82 bc 4e 54 88 3d
       -0.144269 -0.08947416 -0.015905045 0.06656705
0001b0 61 66 00 be 47 f6 04 3e 51 a2 c6 3e 00 c2 aa bd
       -0.12539054 0.12984572 0.38795713 -0.08337784
0001c0 6a 9a 72 bd 2d 5e 1e 3e 48 80 9e 3e c8 d3 96 3d
       -0.059229292 0.15465613 0.30957246 0.07364613
0001d0 d1 38 28 be dc 48 50 bd 89 c7 31 be 06 f1 80 bb
       -0.16427924 -0.050850734 -0.17361273 -0.003934982
0001e0 21 e8 b7 3d 9a 85 14 be 33 e1 28 bd 73 34 00 be
       0.08979822 -0.1450409 -0.04123039 -0.12520008
0001f0 a5 06 10 be 3d b4 de bd ee b6 25 be 50 90 b6 3d
       -0.14065035 -0.108742215 -0.16183063 0.08914244
000200 6d fc 51 be 0d 63 51 3d c5 fc ae 3e 49 c0 e1 bd
       -0.20506449 0.051119853 0.34177223 -0.110230036
000210 1d a9 9d 3e e1 b4 7d 3d 2a 05 38 3e 14 e7 94 bc
       0.30793086 0.061940078 0.1797072 -0.018176593
000220 0a 87 ac 3c d2 b1 17 3c e8 18 3b bd ef 54 03 be
       0.021060485 0.009258704 -0.04567805 -0.12825368
000230 0e ef b0 3e 4e 04 93 3d 8e 4c c1 bd 21 3a a0 be
       0.34557384 0.071785554 -0.0943843 -0.3129435

enc1.0.bias f4 [16]
000000 89 43 f7 3d 32 8e aa bd 9a d5 86 be 07 c9 f6 bc
       0.12073428 -0.08327903 -0.2633484 -0.030125154
000010 8a 9b ac 3e c4 37 09 bd 11 26 16 be 77 b1 eb 3d
       0.33712417 -0.033500448 -0.14662959 0.11508458
000020 dd 34 cc bc cc 1c 60 3e c8 0f e0 bd 63 2f 4f 3e
       -0.02492755 0.21885985 -0.1094051 0.2023292
000030 f0 24 64 be e9 c2 4b 3e 87 7b 16 be 91 92 13 bd
       -0.22279716 0.19898571 -0.1469556 -0.03602845

enc1.2.weight f4 [16, 16, 3, 3]
000000 0f 67 66 bd 88 0d 83 3d 2a b5 88 3c 3a 6a 6c 3c
       -0.056250628 0.06399065 0.016687948 0.014429623
000010 3b ed a1 3d f2 44 03 bd ca 22 15 bd e5 30 6d 3d
       0.07906576 -0.032048173 -0.03641013 0.057907958
000020 6a c1 fd 3c 65 0e 17 3d 82 95 54 bd 0c 82 2a 3c
       0.030976016 0.036878962 -0.051900394 0.010406982
000030 64 57 83 bb f0 71 73 3d 29 d6 32 3d 59 84 cc 3d
       -0.0040082205 0.05943483 0.04366127 0.09986181
000040 74 37 20 bc 9a e0 30 3c 07 44 24 bd c0 b5 aa bc
       -0.009778846 0.010795737 -0.04010394 -0.020838618
000050 55 96 55 bd de ff 5e 3d 4c e7 68 3d cf 47 cc bc
       -0.05214532 0.054443233 0.056861207 -0.024936585
000060 90 95 9d bd dd dd fd bc f6 44 7f bd 36 98 7b 3d
       -0.076945424 -0.030989582 -0.062321626 0.061424457
000070 16 48 8e 3d c0 77 71 3d 72 e0 1a bd f3 57 af 3d
       0.06947343 0.058952093 -0.037811704 0.08561697
000080 d3 ab 9b 3d 64 66 91 3d b8 e2 a1 3d bb 81 0f bc
       0.07601132 0.070996076 0.07904571 -0.0087589575
000090 32 76 88 3d df c8 08 3d 71 f0 7c 3c 0a 7f 97 3c
       0.06663169 0.03339469 0.015438185 0.018493194
0000a0 3a 63 c3 bc 77 65 7c bd d6 aa 85 bd 33 27 3f bd
       -0.023851026 -0.061620202 -0.06526725 -0.046668243
0000b0 ec 1b a2 3c 12 53 29 3d 5a 63 e2 3d dd 41 50 3d
       0.019788705 0.041338988 0.11054106 0.050844062
0000c0 f4 d9 d7 bc 11 83 27 bd 72 f7 5d 3c 13 75 d5 3d
       -0.026349045 -0.04089648 0.013547765 0.10422721
0000d0 cb 17 03 bd 79 22 cc 3d fe d7 a2 3d 64 82 18 3e
       -0.032005113 0.09967513 0.079513535 0.1489349
0000e0 d5 67 66 3d 10 f8 c8 3d ef cb fd bc 94 fe 93 3c
       0.056251366 0.09812939 -0.030981032 0.018065728
0000f0 5f 08 af bc 79 74 3b bd 83 4d 08 3d ad be 0c 3d
       -0.021366296 -0.045765374 0.033277046 0.03436153
000100 1b ea 32 3d 89 2e a7 3c 8c eb af 3b 82 d0 15 bd
       0.04368029 0.020407932 0.0053686555 -0.0365758
000110 ce 7a 9a 3d da 43 2d 3d 25 d6 97 3d 07 7b 59 bd
       0.075429544 0.042301036 0.07413892 -0.053095844
000120 46 2a 2f bd 06 8c 46 bc 70 3b a5 3d 40 9c 27 3d
       -0.042764924 -0.012118345 0.080679774 0.040920496
000130 2f 0e 99 3d 13 b8 22 bd f0 eb ca 3d 9c ce e6 3c
       0.074734084 -0.039726328 0.09908283 0.02817469
000140 1f 50 06 3d 49 84 11 3d cd 3b a0 3c 1a e9 0b bd
       0.032791253 0.035526548 0.019559765 -0.03415785
000150 28 18 c5 3c 05 98 67 bd 4d ac 91 bd 75 57 88 bd
       0.02405937 -0.05654146 -0.07112942 -0.06657306
000160 09 5b 8c 3b 52 ba c7 bd c4 10 37 3b d5 25 a9 3d
       0.004283313 -0.09752335 0.0027933577 0.08259169
000170 ae 72 be 3c 65 2f 4a bd 57 27 50 bc 79 83 53 3d
       0.023248043 -0.049361605 -0.012704692 0.051639054
000180 50 83 bf 3d 50 b2 b9 3d 06 44 dd 3d 70 38 4d 3d
       0.09351218 0.090672135 0.1080399 0.05010265
000190 d8 e2 4f bd 36 9f 94 3c af f3 87 3d 22 29 89 3d
       -0.050753444 0.018142324 0.06638276 0.066972986
0001a0 43 4e 68 bd dc d9 39 bd c4 9a 08 3d 6d b6 a0 bd
       -0.05671526 -0.045373783 0.03335072 -0.07847295
0001b0 f3 d3 d4 3d 75 7b 20 ba 0e a7 75 3d fd 2a 3f 3d
       0.103919886 -0.0006121912 0.05997377 0.046671856
0001c0 33 27 70 3d 70 6b 80 3d f0 a5 84 3d f6 fc 91 3d
       0.058631133 0.06270492 0.064769626 0.071283266
0001d0 33 78 05 3e a7 4a 64 3d 14 bc cd bd e4 52 29 3d
       0.13034134 0.055735257 -0.10045639 0.041338816
0001e0 47 ec 86 bc 74 cb a0 bd fa d8 14 bd 25 bc ec bc
       -0.016470088 -0.078513056 -0.036339737 -0.028898308
0001f0 67 f2 5c bd d9 bd 66 bd f5 de 96 3d 74 5b c0 3d
       -0.05394211 -0.056333397 0.073667444 0.09392443
000200 ef 2f ba 3d f6 ab 40 3d d1 9f 4b 3d 74 62 af 3d
       0.09091174 0.047038995 0.04971296 0.085637
000210 24 20 fe b8 b5 93 ef bc d7 dc cb 3d 3e 56 57 3d
       -0.000121176505 -0.029245237 0.09954231 0.05257248
000220 8f cd cc 3d 7b e1 58 bc a7 5d 06 3e 51 e4 a8 3d
       0.10000145 -0.0132373525 0.13121663 0.08246673
000230 a8 ba 84 3d 00 2e 20 3e 6b b4 d2 3d be 16 e9 3b
       0.06480914 0.15642548 0.10288318 0.007113307
000240 93 29 82 3d 0a 88 dd 3b d3 2b 03 bd 1c ee 99 bd
       0.06355586 0.006760602 -0.032024216 -0.07516119
000250 1e 53 88 3d 71 da ca 3c 28 61 0f bd 25 e8 1b bd
       0.06656478 0.024762364 -0.035004765 -0.038063187
000260 66 44 0b 3d 71 8b 12 be 10 2e 1f bd 62 78 13 bd
       0.034000777 -0.14311005 -0.038862288 -0.036003478
000270 54 9a 6d bd 3d 74 e3 bd a4 3f 7e bd 7f ec 4b bd
       -0.058008507 -0.11106155 -0.06207241 -0.049786087
000280 cd 56 de bd 54 b5 bc 3c 15 46 7e 3d b2 97 01 3d
       -0.108564 0.023035683 0.062078554 0.03163881
000290 26 fb 2d 3c 59 d1 bc bc fa c9 1f 3d 83 7e dd 3c
       0.0106189605 -0.023049043 0.03901098 0.027037865
0002a0 58 52 71 3d 5c 97 aa bd 75 cb 51 3d 13 a4 b9 3b
       0.05891642 -0.08329651 0.051219422 0.005665311
0002b0 7a db c6 bd 5b de d6 bd 9a fe 78 bc d8 c0 27 bd
       -0.097098306 -0.1049163 -0.0151974205 -0.040955395
0002c0 be 43 1a 3d a3 b9 e2 bd 63 8f 1e 3d 69 7d d1 bd
       0.03766226 -0.11070564 0.038710963 -0.10228998
0002d0 7e 95 c5 3d 3f a1 bd 3d 1b 89 0b bd 2d 6b 02 bd
       0.09647654 0.09259271 -0.0340663 -0.031840492
0002e0 9b 10 ca 3d 92 34 ba 3d 18 2b 91 3d e7 36 00 bb
       0.098664485 0.09092058 0.070882976 -0.0019563974
0002f0 e4 7e 22 3b 7f fe ef bd f9 af ec bc 0c fc 4a bd
       0.002479487 -0.11718463 -0.028892504 -0.049556777
000300 fc 2f ca bd 36 6a 7c bd 78 d4 0e bd b1 a8 cd bd
       -0.098724335 -0.06162473 -0.034870595 -0.10041941
000310 ce d7 3d 3b ac 81 d1 3c b6 0d 06 be ea 79 ae bd
       0.002896774 0.025574528 -0.13091168 -0.08519347
000320 98 88 32 be de 11 87 bc 05 9a 82 bd f0 7b 03 be
       -0.17434919 -0.016488012 -0.06377033 -0.12840247
000330 ce 51 69 bd d1 3f 2c bd 16 2d b4 3b 03 78 d3 3d
       -0.05696278 -0.042053048 0.0054985387 0.10325625
000340 db da 1f bc f8 36 d8 3c 7c e1 ab 3c c3 4d 38 bd
       -0.009756769 0.026393399 0.020981543 -0.044996034
000350 90 01 ca 3d fa a6 85 3d cd 1f 8d bc fb fc 19 bd
       0.09863579 0.06525989 -0.017227078 -0.037594777
000360 d0 47 30 3d 46 c7 16 3d ab 35 ac bc ae f1 d4 bc
       0.043037236 0.036811136 -0.021021685 -0.025994148
000370 09 63 b3 3c c7 41 94 3c 11 1e a4 bd 81 68 46 bd
       0.02189781 0.018097771 -0.08013547 -0.048439506
000380 f0 ff b7 bd 0f f0 a5 3d c8 23 c8 bc 93 4d d7 3c
       -0.08984363 0.08102428 -0.024431124 0.026282107
000390 e0 1e 49 bc eb 7a 04 3d a2 4e 96 3d ff a7 8e 3d
       -0.012275428 0.032343786 0.07339217 0.069656365
0003a0 db e2 e1 3d 13 46 00 3e 9e 4c fe bd c7 ae cb 3b
       0.11029597 0.12526731 -0.12416957 0.0062159034
0003b0 aa db 95 bd 44 92 d1 bd ce 02 0a be 6a 71 13 3d
       -0.07317288 -0.10232976 -0.13477632 0.035996832
0003c0 b1 f2 e4 bd 1d 68 d8 bd d6 12 93 3c f4 82 28 bd
       -0.11179102 -0.10566733 0.017953318 -0.04114051
0003d0 90 a4 ac 3c ea 06 4b ba e7 f1 c9 3d 97 93 26 bd
       0.021074563 -0.0007744866 0.09860592 -0.040668096
0003e0 4e 32 a5 bc be e6 2d bc 62 8f 3a bd f3 e6 0c 3d
       -0.020165589 -0.010614095 -0.045546897 0.034399938
0003f0 c8 16 bb bc f0 d0 1f be bd 6c cd bd 36 44 af bd
       -0.022838011 -0.15607047 -0.10030506 -0.08557932

enc1.2.bias f4 [16]
000000 83 22 8a 3d dc 1e 9f 3d 5e bb 23 bd ac 8b a2 bc
       0.06744864 0.07769558 -0.03997361 -0.019841991
000010 f4 5b 2f bb 32 68 69 3d c6 65 ed 3b 9f dc 63 bd
       -0.002675769 0.056984134 0.0072447984 -0.055630323
000020 1d 05 07 bc e9 98 ba 3c 4e 63 35 bd c0 06 a1 3d
       -0.008240965 0.022777991 -0.044284157 0.078626156
000030 79 35 91 3d ab 4f eb bb f2 aa f2 3c 85 92 fa bc
       0.07090277 -0.007181128 0.029622529 -0.030587444

enc2.0.weight f4 [32, 16, 3, 3]
000000 04 57 30 bd 35 3e 93 bd ea 88 97 3c 31 be 5e bd
       -0.043051735 -0.071895994 0.018497903 -0.0543806
000010 af 0d 8d bd 03 3f a2 bd 1c 83 58 bd 2f c9 19 3d
       -0.068873756 -0.07922175 -0.05285941 0.03754538
000020 89 35 a3 3d d0 3a 23 3c 2c e8 31 3d cb 41 d5 3d
       0.079691954 0.009962752 0.043434307 0.1041294
000030 9e d8 e0 3b c3 b7 84 3c f7 fb 16 3d f9 85 d2 3d
       0.0068617603 0.016200906 0.036861386 0.102794595
000040 07 2f 2b 3a 54 28 0c bd b3 8b c0 bc 0f b9 8a 3c
       0.000653014 -0.034218147 -0.023504114 0.016933946
000050 09 e6 a1 bd 00 ab af 3c c1 c4 83 3d 6e 8c fa bb
       -0.07905204 0.021443844 0.06434012 -0.007646135
000060 04 fa d8 bc ab a6 d7 bc 66 a1 ea bc cc b9 df 3d
       -0.026486404 -0.02632459 -0.028641414 0.1092411
000070 0e e5 f4 bc 55 35 b9 bd 45 b0 f9 3d 8f b7 7b bd
       -0.029894378 -0.090433754 0.12191824 -0.061454352
000080 fb 89 06 be 85 f9 f8 3d 22 ad fd bd 83 b8 e7 bd
       -0.13138573 0.12156967 -0.12386538 -0.1131449
000090 58 a3 53 bd f0 ef 59 3d 31 b7 de 3c 57 d4 4e 3d
       -0.05166945 0.053207338 0.027186962 0.05049547
0000a0 8b d2 c7 ba bb 89 8d bc 73 04 5a 3d 25 81 17 bd
       -0.0015245242 -0.017277589 0.0532269 -0.036988396
0000b0 fa 6f 65 bc 8d d8 db bc 90 3b 82 bc af 11 b3 bd
       -0.014003748 -0.026836658 -0.015897542 -0.08743607
0000c0 e6 b5 14 be 99 8a 17 bd 48 69 71 3d 4d 73 8f 3d
       -0.14522514 -0.03699741 0.058938295 0.07004414
0000d0 f1 0d 40 3d 60 09 6d 3d 78 3a 13 bd 7e 7b 8c bc
       0.046888296 0.05787027 -0.035944432 -0.01714873
0000e0 64 6a 9f 3d dc a7 be 3c 36 b8 57 3d cf 66 62 bd
       0.07783964 0.023273401 0.05266591 -0.055273827
0000f0 44 7b b6 3d 20 b6 75 bd ce 4c d4 3c 6d 82 38 3d
       0.0891023 -0.05998814 0.02591553 0.04504626
000100 48 db 69 bd ea cb 2c 3d 70 62 f5 3c cc 9e 5d 3d
       -0.05709389 0.042186655 0.029954165 0.05410652
000110 19 1b 2b ba 1d ee 48 bd 18 dc b3 3c 36 b2 58 3d
       -0.000652717 -0.049055208 0.021955535 0.05290433
000120 25 88 b8 3d d4 76 85 bd b5 a8 71 3d 4f 38 9d 3d
       0.090103425 -0.06516805 0.058998782 0.07676756
000130 e0 79 84 bd fa 15 d5 bc ba 48 09 3d 39 37 54 bd
       -0.06468558 -0.026011456 0.033516623 -0.051810477
000140 f5 0f 00 3d c3 c5 8e 3c 9a 7a b0 bc f3 82 3d bc
       0.031265218 0.017428285 -0.021542836 -0.011566865
000150 91 63 91 3d 70 ad 39 bb bb 5d 38 bd 7d e2 35 bd
       0.07099069 -0.0028332137 -0.045011263 -0.04440545
000160 86 d9 3c 3d 8f f1 8d bc d7 fb 87 bd 17 e3 14 bb
       0.046105884 -0.017327098 -0.066398315 -0.0022718364
000170 4a 3a 2a 3d 23 a1 86 bc 0c c1 49 3d 8f 6a 48 bd
       0.041559495 -0.016434258 0.04925637 -0.048929747
000180 37 fc 73 3d 21 98 8a bd 0b 14 d8 bc 29 e8 66 bd
       0.059566703 -0.067672975 -0.026376745 -0.05637375
000190 2d 1c a0 3d 06 d1 f9 bc 99 e2 d4 3d de 0f dc 3d
       0.07817874 -0.030495178 0.103947826 0.10745214
0001a0 83 d8 dc bc 3f 82 24 3d e8 c8 64 3d e1 d6 d0 3d
       -0.02695871 0.040163275 0.05585566 0.10197235
0001b0 b8 13 80 bd d4 b7 69 3d 3b 4a 88 bd ab e9 4b bd
       -0.06253761 0.057060078 -0.06654783 -0.04978339
0001c0 13 0b d5 3b 1d d3 95 bd 76 31 e7 bc 7d da b6 bd
       0.0065015643 -0.07315657 -0.028221827 -0.08928392
0001d0 d6 b0 10 3c b7 63 a5 bd b2 88 89 bc 83 83 25 bd
       0.0088312235 -0.0807566 -0.016788814 -0.040408622
0001e0 8e c7 71 bc 67 28 79 3c 50 9e a9 bd 31 43 82 3c
       -0.01475705 0.015207387 -0.08282149 0.01590118
0001f0 ea e9 b9 3c f6 a1 f9 bc ea 61 87 bd 92 63 37 bb
       0.022694547 -0.030472737 -0.066104725 -0.0027982933
000200 66 4c b3 bc 88 29 00 bd e3 de c0 3d 0c 1f 2b bd
       -0.021887016 -0.031289607 0.09417512 -0.041777655
000210 99 73 61 3d dd 8b 55 bd 9b f9 ea bb bf 6d 72 3d
       0.055041883 -0.052135337 -0.0071708686 0.059186693
000220 00 6e d6 bc 88 78 44 bd c1 e6 bc bd 66 4c ee 3c
       -0.026175499 -0.04796651 -0.092237 0.029089164
000230 d1 7a 89 bd d8 74 8b bd ca bd 82 3d 1f 95 97 3d
       -0.067128785 -0.068093956 0.06383856 0.074014895
000240 8a 10 cc 3c 6b 85 a0 bd 76 85 af 3c 5a a0 0c 3d
       0.02491023 -0.078379475 0.021425944 0.03433261
000250 f7 01 55 3d 96 9c 5f 3d fd de 59 bd cd 59 91 bd
       0.052003827 0.05459269 -0.053191174 -0.07097206
000260 e2 d8 86 bd 99 26 9f bb d6 c8 b7 3d 8e e3 82 3d
       -0.06584336 -0.004856896 0.08973853 0.06391059
000270 fe f3 d5 bc 83 7f be 3d 18 bc 06 bd d2 5c 42 bd
       -0.026117321 0.09301665 -0.032894224 -0.0474518
000280 38 a4 3b 3c f3 56 4c bd 03 0f 28 3d f3 74 81 bd
       0.011452727 -0.04988761 0.04102994 -0.063211344
000290 3b 38 a0 bd ec d3 ab 3a 71 c0 81 bd fc 5e 9b 3d
       -0.07823225 0.0013109422 -0.063355334 0.07586476
0002a0 08 30 42 3d 0b 49 fc bc a0 f6 5b 3c 31 a1 e6 3d
       0.047409087 -0.030796548 0.013425499 0.112612136
0002b0 63 66 29 3c c0 b5 19 be b5 5a ff 3d 3f e3 7d 3c
       0.010339352 -0.15010738 0.12468473 0.015496074
0002c0 83 8d d9 bd 80 1c 25 3c 5b ab 60 3d 5b c4 93 bd
       -0.10622694 0.010077596 0.054850917 -0.07215186
0002d0 61 20 34 bc b9 43 b6 bd 9e 57 04 3d a9 71 99 bd
       -0.010994048 -0.08899636 0.03231012 -0.07492382
0002e0 4b 32 a1 bd 2f 9c 2d bd 7f 36 46 bc 67 ea 1b bd
       -0.07870921 -0.042385276 -0.012097954 -0.03806534
0002f0 36 3f 3d 3c cd bb 96 bd ef b9 9d bc 2d 1c a6 3c
       0.011550715 -0.07360039 -0.0192537 0.020277107
000300 b2 cd 1e bd 44 c7 0e 3d a6 38 26 3b 02 71 67 3d
       -0.038770385 0.034858003 0.0025363355 0.056504257
000310 b1 15 43 bd f0 54 54 bc b5 a3 9c bc 4e 41 8d 38
       -0.04762811 -0.012959704 -0.01912103 6.735568e-05
000320 a4 c5 dc 3c 7b f2 c9 3d 97 8b bc 3d 82 2d 1b 3d
       0.026949711 0.098607026 0.09206312 0.037885197
000330 14 ca 09 bd bd e3 8b bd b4 9d 7a 3c 83 29 61 3d
       -0.033639982 -0.06830547 0.015296388 0.05497123
000340 a5 6f 7d bd 01 46 ae 3d 90 9e 14 3d d4 15 5e bc
       -0.06187405 0.08509446 0.03628403 -0.013555009
000350 c0 73 9e bc 87 65 4a bd 2e 31 12 bc 73 09 28 3c
       -0.019342303 -0.04941323 -0.008922858 0.010256159
000360 a3 67 b9 3c 40 c6 35 bc 3c 2c 90 bc 8d d4 02 3d
       0.022632426 -0.01109463 -0.017599218 0.031940985
000370 b3 ea 13 bd 03 2e 6f 3d 14 30 f4 bc ed 43 c9 bc
       -0.0361125 0.05839349 -0.029808082 -0.024568522
000380 c1 69 84 bd 7e f9 a5 3d 85 cf 4c 3c ac 26 37 3d
       -0.064654835 0.081042275 0.012500648 0.044714615
000390 4b ff b4 3d ee 69 d8 bc 17 e9 f7 3c 62 1b 21 bd
       0.08837756 -0.026417699 0.030262513 -0.039332755
0003a0 cf 43 2c 3d 0d 09 c3 3d e3 b9 f9 bc 75 c9 1f 3d
       0.042056855 0.09523211 -0.030484146 0.039010484
0003b0 18 0d 3c bd da e0 86 bd 6a 11 01 bc d3 b3 b1 3c
       -0.045910925 -0.06585856 -0.007877687 0.021692192
0003c0 5d f2 a9 3b 71 e2 6d 3d ab a6 a8 3c 22 13 3a ba
       0.0051863627 0.05807728 0.020587286 -0.0007098188
0003d0 3a 95 d4 3d da da bd 3c 21 53 60 3b 0c b6 d7 3d
       0.10380025 0.023175646 0.0034229236 0.105327696
0003e0 aa 04 1a 3d 3f a0 e2 3c e3 3a 4f 3d fc be 8e bd
       0.037602104 0.027664302 0.050593268 -0.06970021
0003f0 98 4c a0 bd 98 59 89 3c 61 22 ba bc b4 f0 85 bd
       -0.07827109 0.016766354 -0.022721471 -0.06540051

enc2.0.bias f4 [32]
000000 93 22 c9 3d 29 65 49 3b 73 0f 2f 3d 72 96 10 bc
       0.09821048 0.0030730462 0.042739343 -0.008824931
000010 dd c8 52 3d 92 ac 00 bd 05 a0 99 3d 46 a0 31 bd
       0.05146109 -0.031414576 0.075012244 -0.04336574
000020 4c 9d a8 3c 71 bc f2 bc ba af 8b bd 29 e8 99 bd
       0.020582817 -0.029630871 -0.068206266 -0.07514984
000030 7d 46 90 bd 08 bb 3d bd 10 17 99 bd 02 02 1a bc
       -0.070446946 -0.046320945 -0.07475102 -0.009399893
000040 a1 90 20 3c 6b 2d 98 bd 9d ba 4a bd c2 53 46 3d
       0.009800107 -0.07430538 -0.049494375 0.04841972
000050 8b ce a5 3d f0 ef 5f 3d 48 5e 00 3c 00 fd b8 3d
       0.080960356 0.05467218 0.007834978 0.09032631
000060 cc ed 99 3d a5 ca 9a bd bb e5 d7 3d 82 fe 7e 3d
       0.07516059 -0.075581826 0.105418645 0.062254436
000070 e6 f7 e1 bb c7 0c 9f bb be e0 6a bd 82 7b 81 bd
       -0.006896007 -0.004853818 -0.057343237 -0.06322385

enc2.2.weight f4 [32, 32, 3, 3]
000000 b5 83 f3 3c 97 3b 03 bd e6 4d c4 3c 96 26 a2 3c
       0.029725889 -0.03203925 0.023962926 0.01979379
000010 79 ba 0e 3d 22 93 47 3d 48 fb 9d 3c ba 0d 34 bd
       0.034845803 0.0487243 0.01928486 -0.043958403
000020 05 b0 66 3d 90 90 c4 ba 87 f7 0a 3d 13 24 d3 3c
       0.05632021 -0.0014996696 0.033927467 0.025774037
000030 65 16 bc bc b1 33 37 3c a9 06 c4 bc 69 9c 94 3c
       -0.022959897 0.011181758 -0.023928957 0.018140988
000040 52 1c c8 3b 49 9e d1 ba e1 20 e4 bc 32 5d df bb
       0.0061068917 -0.0015992607 -0.02784771 -0.0068165297
000050 28 19 df bb 04 e0 2b 3d 5b 34 53 3d 8d d0 d9 bc
       -0.006808419 0.041961685 0.051563602 -0.026588703
000060 d6 82 08 bd 3d c9 a2 bb ee 31 e0 3c 38 0d f5 bc
       -0.0333279 -0.004967837 0.027367558 -0.02991353
000070 0d ef ad bc a9 3f de bc fb ea 06 3d bf 78 48 3d
       -0.021232152 -0.027129965 0.03293894 0.048943277
000080 f1 ac 07 bd 73 4c 4b bd f7 e5 3a bc c9 99 e2 bc
       -0.033123914 -0.049633455 -0.011407367 -0.027661221
000090 0b 11 18 3c 1e 89 82 3d 34 b1 1f bd 7c 94 43 3d
       0.009281407 0.06373809 -0.038987353 0.047749028
0000a0 09 4e bb bc 6d 58 cf 3c 5c 8a 81 3d 70 19 9b 3d
       -0.022864358 0.02531072 0.06325218 0.07573211
0000b0 96 4a bd bc 29 47 b4 bd 62 0c 3d be a3 95 e8 bc
       -0.023106854 -0.08802635 -0.18461755 -0.028391665
0000c0 ce 7e 92 bd 79 19 36 be ce 7b d0 3c d0 d0 0f bd
       -0.07153092 -0.17783155 0.02544966 -0.03511125
0000d0 9c 44 c8 bd 3a b2 eb 3d 0f cc 1b 3d e5 72 02 bd
       -0.09778711 0.115086034 0.038036402 -0.031847853
0000e0 9a 8a 52 3c fd 47 8b 3d ae 7a 06 3c 8d 78 0c bd
       0.012850428 0.0680084 0.00820796 -0.034294654
0000f0 f4 1f 85 3d 93 01 fd bc df 2e 61 3d 22 75 e5 3c
       0.06500235 -0.03088454 0.05497634 0.028009955
000100 53 78 8f 3b 42 4b 8e ba 60 7e 08 bd b2 8b 81 3c
       0.0043783574 -0.0010856169 -0.033323646 0.015813682
000110 44 aa 28 3c 7a 18 d7 bc 48 dd a2 3c 8e cd 14 3c
       0.010294501 -0.026256789 0.019880906 0.009082211
000120 fe e0 c2 3d 48 1c 1d be be 77 27 be c0 fb 23 bd
       0.0951557 -0.1534282 -0.16354272 -0.04003501
000130 26 04 24 be 84 e5 02 be ff 30 6c 3b be e5 95 bd
       -0.16017208 -0.12782866 0.0036039946 -0.073192105
000140 d8 e1 b2 bd eb a0 1b bd 62 81 7b 3a 83 a0 e8 3c
       -0.087344825 -0.03799526 0.00095941697 0.02839685
000150 77 66 1d 3d 25 1f 28 3d ad 9c ae bc 7d be 11 bc
       0.038427796 0.041045327 -0.021314943 -0.008895514
000160 65 30 53 bd e4 c4 08 bd 52 67 33 bc 25 bf 60 3d
       -0.051559824 -0.033390895 -0.010949926 0.05486979
000170 41 a8 12 3d d1 3a b8 bc 20 ea 73 3b ab be f4 3c
       0.03580499 -0.022488983 0.0037218407 0.029876074
000180 c5 87 60 ba 97 ec 47 bd 5a 75 a7 bb 3b 54 45 3b
       -0.0008565153 -0.048809614 -0.005110425 0.003011002
000190 1d 32 c7 bc 1f 18 6f bd f6 25 be bc c3 b6 57 3d
       -0.024315888 -0.058372613 -0.02321146 0.05266453
0001a0 67 d6 3c 3d 09 08 f8 3a 9f d6 24 3c 99 6e 4d 3d
       0.046102908 0.0018923293 0.010060935 0.050154302
0001b0 7e fd e8 3a 68 70 e9 bc 91 c9 31 3d ef 7e a7 bc
       0.0017775742 -0.028495982 0.04340512 -0.020446269
0001c0 a7 da 45 3d 89 4b 19 3d 25 69 38 bc c3 49 33 3d
       0.048304226 0.03742555 -0.011255537 0.043771517
0001d0 b9 89 11 bd 5a 18 b1 3c 19 45 e3 bc b8 e7 45 3d
       -0.035531733 0.021618057 -0.02774291 0.048316687
0001e0 6f 6f f5 3c 28 dd 72 bd 63 92 22 bd f7 cb 37 3d
       0.029960362 -0.059292942 -0.039690387 0.04487225
0001f0 fc f6 26 3d f4 dd 04 bd a0 22 ea 3c ec 2c 94 bc
       0.040762886 -0.032438233 0.028580964 -0.018087827
000200 d0 fd 48 bc 8f 9f 2d bd 5d 98 c7 bb bf a0 7a bc
       -0.012267545 -0.042388495 -0.006091161 -0.015297114
000210 ad 74 ed 3a 9f 38 4a bd da 46 29 3d 73 95 ce bb
       0.0018116437 -0.049370404 0.041327335 -0.006304437
000220 1c 8e 4e 3d ec 16 a4 bc 31 6e 88 bc 1f 3e 2e 3d
       0.050428495 -0.020030461 -0.016654106 0.042539712
000230 fa cd 5c bd c2 9a 3e bd 84 1b 0c 3d ee 8f ba 3a
       -0.053907372 -0.046534307 0.03420593 0.0014233568
000240 d7 da 04 bd 91 36 1b 3d 58 6c 82 bd 39 aa 6b 3c
       -0.032435264 0.037893835 -0.06368321 0.014383846
000250 c0 66 81 bc 88 ce f0 bc d9 d7 21 3c 65 31 04 3d
       -0.015796065 -0.029395357 0.009878122 0.03227367
000260 66 82 60 3d 82 58 35 3d 12 15 1e 3d 14 a2 37 bc
       0.054811858 0.04427386 0.038594313 -0.011208076
000270 63 73 48 bc 9a ec 39 bd 78 05 75 bc 31 ea 3c 3d
       -0.012234542 -0.045391656 -0.014954917 0.04612178
000280 02 c1 60 bd fe a8 47 3d 46 6f aa bb f4 bc db bb
       -0.054871567 0.048745148 -0.005201253 -0.0067058746
000290 be 2c 5b bc 04 ad 1d bc e0 b3 5d bd 01 21 c3 bc
       -0.013377367 -0.00962377 -0.05412662 -0.023819448
0002a0 b7 ed bd bc 65 d4 6f 3d a6 8a 62 bd 8a 71 3e 3d
       -0.02318464 0.058552165 -0.055308007 0.046494998
0002b0 25 6e aa 3c 9b 75 1a bb f2 d6 e0 3c 0f 22 f4 3c
       0.020804474 -0.0023568633 0.027446244 0.029801397
0002c0 b9 d0 18 bd d2 ca 1e bd ec 5f fe 3b 38 fa 62 bd
       -0.03730843 -0.038767643 0.0077628996 -0.05541441
0002d0 46 93 32 bd bc 0f 1a 3d 64 77 31 3d 3d e2 00 3d
       -0.043597482 0.03761266 0.04332675 0.031465758
0002e0 8e 5d 0c 3d dd af 30 bd f8 da 0d bc af 48 b1 bc
       0.03426891 -0.043136466 -0.008658163 -0.021641104
0002f0 cc 9a 83 3c 20 39 16 3d 49 6b c8 bc 99 a9 a6 3b
       0.016065024 0.036675572 -0.02446522 0.0050861356
000300 0c c8 86 3d bd a3 15 3c 62 79 36 3b d3 61 43 3c
       0.06581125 0.0091332765 0.0027843346 0.011925179
000310 10 89 42 3d fb 61 d1 3b f9 a3 08 3d bc 7c 07 3d
       0.047493994 0.006389854 0.0333595 0.03307794
000320 38 60 da bb f1 55 86 bc 1b f8 12 bd cc 16 3d bd
       -0.006664302 -0.016398402 -0.035881143 -0.04616432
000330 2a 6f 42 bc 27 13 fd bb 67 54 42 3d 4b 54 fe 3d
       -0.011867324 -0.0077232304 0.047443774 0.12418421
000340 1c b6 5c 3e 6f d4 a0 3d ff e8 3b 3e b6 d1 82 3e
       0.21553844 0.078530185 0.183506 0.25550622
000350 93 89 31 3e 27 92 4e 3d e8 59 ea 3d 99 78 01 3e
       0.17337637 0.05043235 0.114429295 0.1264366
000360 32 16 05 3d 43 d3 29 3d 6e 45 be 3c 0f f4 ef bc
       0.03249187 0.04146124 0.023226466 -0.02929118
000370 1b 38 f4 3b 80 b7 bd bc 98 ed 7c bc d6 06 bf 3c
       0.0074529774 -0.023158789 -0.015437506 0.02331869
000380 af 64 3c bc 3d 83 1d 3c 70 57 52 bd 36 4c b8 bc
       -0.011498614 0.009613809 -0.05135292 -0.022497278
000390 e2 88 52 3d c3 3e 6d 3d 3c 59 26 3d eb 11 a3 3c
       0.051400073 0.057921182 0.040612444 0.019906005
0003a0 f9 80 8d 3d 20 61 80 3d 6a c0 b6 3b 37 85 9f 3c
       0.06909365 0.06268525 0.0055771368 0.019472701
0003b0 03 b7 e2 bb 79 30 08 3d 30 1c 59 bb 65 4c 4a 3d
       -0.0069187894 0.033249352 -0.0033128373 0.04938926
0003c0 15 2e 18 3b 6e 2b 82 3d b7 0b 73 3c d7 cb 71 bd
       0.0023220826 0.0635594 0.014834336 -0.059032287
0003d0 c8 3e ba 3c 49 42 9b 3c b7 4d d3 3c d8 57 55 bd
       0.022735015 0.018952506 0.025793893 -0.052085727
0003e0 53 54 01 bd 44 a8 49 3c c0 00 31 3d 5d 5e 58 bc
       -0.03157456 0.012308184 0.043213606 -0.013206092
0003f0 58 5a 3b bd 59 90 36 bd 5c 5f ea 3c 14 a9 33 3d
       -0.045740455 -0.044571254 0.028609924 0.043862417

enc2.2.bias f4 [32]
000000 d4 1a 96 3d 44 03 91 3c 95 ce 6d 3d f7 cb ab bc
       0.07329336 0.017701752 0.05805834 -0.020971281
000010 44 ba 23 3d 03 8f 5e bc b8 b0 6c 3d 00 e8 61 3d
       0.03997256 -0.013583901 0.05778572 0.055152893
000020 2d 77 87 bd a7 f9 e5 3b 40 03 25 bd b3 c3 89 3d
       -0.06614528 0.0070182863 -0.040286303 0.0672678
000030 bf 91 04 3b 61 dc 72 3c 35 3e 29 bd f4 90 1e 3d
       0.0020228473 0.01482305 -0.04131909 0.038712457
000040 9b 43 91 bd 27 52 61 bc 53 26 30 bd 67 9b 81 3d
       -0.07092973 -0.013752497 -0.0430053 0.06328469
000050 ae cd 6a 3a 74 30 45 bb e5 ef d6 3c 0c 97 81 bc
       0.000895704 -0.0030088695 0.026237438 -0.015819095
000060 50 94 34 bd 5c a5 1a bd 23 ea 4c 3d 19 dc ab 3d
       -0.044086754 -0.037755355 0.050027978 0.0839159
000070 38 32 93 bc 87 f3 87 3d 48 49 47 ba b2 43 b2 bc
       -0.017968282 0.06638246 -0.00076021673 -0.021760795

up1.weight f4 [32, 16, 2, 2]
000000 52 7a c0 bd 6e c8 b4 3d 7b cf 0d 3e 23 d3 e0 3d
       -0.09398331 0.088272914 0.13848679 0.10977771
000010 5d 6e dd bc c2 02 71 bd b4 a0 a4 bd 66 ef 80 bb
       -0.027030164 -0.05884052 -0.08038464 -0.0039347885
000020 68 48 06 be 33 12 65 bd 6c 52 29 bd ae c1 a1 bc
       -0.13113558 -0.05592556 -0.04133837 -0.019745674
000030 34 d8 cf 3c 71 82 8b bd 76 75 96 bc 25 25 a0 3d
       0.025371648 -0.06811989 -0.018366557 0.07819585
000040 ae bc 81 3c d6 fa ee 3d fd 08 48 3d bb c7 e3 bd
       0.01583704 0.11668937 0.048836697 -0.1112208
000050 12 3f a8 3d b4 51 93 3d 35 90 99 3d 67 58 c2 3d
       0.08215155 0.07193318 0.074982084 0.09489518
000060 db ff 30 3c 91 3d 1d bd 31 0e f2 3c 84 42 98 3d
       0.010803188 -0.038388792 0.029547783 0.07434562
000070 f9 03 b5 3d 19 b8 e1 bb 02 f9 13 bd de e6 02 3d
       0.08838648 -0.006888401 -0.036126144 0.031958453
000080 26 a6 96 bd a1 03 06 3e 8a 40 ce bc 54 6b 88 3d
       -0.07355909 0.13087322 -0.025177259 0.06661096
000090 36 e6 c5 3d 16 26 c3 bc 69 06 a0 bd eb ba b7 bd
       0.0966305 -0.023821872 -0.07813723 -0.08971199
0000a0 a2 b9 6e 3b 4b ec 56 3d 7e 4d 53 3c 61 7d b8 3d
       0.0036426564 0.05247144 0.012896894 0.09008289
0000b0 03 43 00 bd 98 50 d4 3d f5 a9 c6 3c d9 81 28 bc
       -0.031313907 0.103669345 0.024250964 -0.010284864
0000c0 61 1c 01 3d 5c e8 be 3d 8e fb a8 bd f9 13 48 3d
       0.031521205 0.09321663 -0.08251105 0.048847172
0000d0 55 de 35 3c c0 99 a3 bd c1 d8 a7 bd 5c 6c bd 3d
       0.011100371 -0.0798831 -0.081956394 0.092491835
0000e0 f3 ff 42 bd 37 66 c8 3d f1 fa 02 3d 95 68 83 bd
       -0.047607373 0.09785121 0.031977598 -0.06416432
0000f0 a9 f5 84 bc f1 cf c3 3d f6 50 b2 bd b7 1b 96 3d
       -0.016230421 0.09561146 -0.08706848 0.07329505
000100 d8 d1 cf 3d 12 87 d7 bd 5e 24 0e 3d fd 7c 7a bb
       0.101474464 -0.105238095 0.03470265 -0.0038221471
000110 fa 8f b4 bd 0d 21 b1 3c 19 75 8e 3d 21 82 f5 bd
       -0.08816524 0.021622205 0.06955928 -0.11987711
000120 d3 a6 0a 3e 1f 75 2d 3d 32 54 fc 3d f4 aa a6 bd
       0.13540201 0.042348024 0.123207465 -0.081380755
000130 41 06 18 3e 70 6a b7 bb 90 f7 c6 3d f9 f5 e4 bd
       0.14846136 -0.005597405 0.097151875 -0.11179728
000140 2f 8a cc bd 9d 27 5e bd d3 5f 46 bd 03 9c 3e bd
       -0.09987294 -0.054236997 -0.04843123 -0.046535503
000150 42 a2 bb bc ae 24 0e be 8f 84 a2 bd 9e b2 b8 3d
       -0.022904519 -0.1388118 -0.0793544 0.090184435
000160 2b d2 18 3e cb 5a fb bd dd e5 4e 3b 4b f6 15 bd
       0.14923923 -0.12273177 0.0031570115 -0.036611836
000170 d9 06 86 bc c5 c8 9d bc 51 db a2 3d da 8f 3e 3d
       -0.016360687 -0.019260773 0.079519875 0.046523906
000180 d1 ec 91 bd b7 25 04 bd f1 db a8 bd 63 1d 17 ba
       -0.07125247 -0.03226253 -0.082450755 -0.0005764572
000190 e4 a0 d1 3c 80 f9 9f 3c ea 86 9c 3d 6f dc e9 3d
       0.025589414 0.01952815 0.0764292 0.114189975
0001a0 7a 10 01 3e 8f 58 31 bd 62 ad 3e 3d 20 b7 8b bd
       0.12603942 -0.043297347 0.04655207 -0.06822038
0001b0 3d 88 48 bd 53 39 d8 3d 48 7e f2 bd 21 bd 4c bd
       -0.048958052 0.10557809 -0.118404925 -0.049985055
0001c0 bb c0 8d bc a5 be 79 3d 93 9a ca bc f9 82 f6 3c
       -0.017303815 0.06097283 -0.02473191 0.03009175
0001d0 12 d4 99 bd f8 1d 50 3d 3c da e4 bd cd 17 1e 3c
       -0.07511152 0.05080983 -0.111744374 0.009649229
0001e0 24 a4 8d bd 4d 4b 03 be e8 66 4d 3d 50 01 08 bd
       -0.06916073 -0.12821694 0.050146967 -0.033204377
0001f0 70 ca d0 3d 53 9c f4 3c 0a ec 50 bc f8 22 f0 bc
       0.10194862 0.029859697 -0.012751589 -0.02931355
000200 ed 87 81 bd 59 48 44 bd f8 88 47 bd e1 33 90 bd
       -0.06324754 -0.04792056 -0.048714608 -0.07041145
000210 25 f1 85 3d db 03 9f bd b2 b5 03 3e 57 60 69 bd
       0.06540135 -0.07764407 0.1286228 -0.056976642
000220 01 a9 d8 bd a0 ce 5d bd ad 40 81 3d 3e 38 d4 3d
       -0.1057911 -0.05415213 0.06311164 0.1036229
000230 62 f2 e7 bd 31 35 8d 3d 7a dc a4 bd a6 3a 4c bd
       -0.11325528 0.06894911 -0.08049865 -0.04986062
000240 d7 ee ed bd 92 68 d5 bb 17 44 b4 bd 69 33 9a bd
       -0.11617821 -0.00651271 -0.088020496 -0.07529337
000250 ca 58 8a bd f2 41 5e 3d 0d 57 be 3d 5e 6a ef 3d
       -0.067552164 0.05426211 0.09293947 0.1169021
000260 ca 05 c3 bd 4b 99 da bd 13 21 66 bd 24 49 9c bd
       -0.095225886 -0.106737696 -0.056183886 -0.07631138
000270 c3 c6 f3 bb ef 0b 47 bd 44 ae 1e 3d 4d 53 9e 3b
       -0.0074394657 -0.048595365 0.03874041 0.0048317076
000280 36 e5 ee bc 29 d8 0e bd ed dc 85 3d 7c e6 d0 3c
       -0.02916203 -0.034874115 0.06536279 0.025500529
000290 c0 5e 92 3c 3e 4c 4e bd 09 5c 0e bd 87 c5 82 bb
       0.017867446 -0.05036568 -0.03475574 -0.0039908323
0002a0 ff 85 cf 3c c8 ed 7f 3c 8e a7 38 3c 0c ed fc bd
       0.025332449 0.015620656 0.011270417 -0.123499006
0002b0 80 ce c5 3d 5e c3 c5 3d 1e 30 6b 3d 65 92 fe 3d
       0.096585274 0.09656404 0.057418935 0.12430266
0002c0 70 82 04 3d 14 96 fc 3d c4 8e c0 bd 4d e2 1e 3d
       0.032350957 0.12333313 -0.094022304 0.038790036
0002d0 88 dc c0 3d b9 4a 01 3e 4e 3e 60 bd f7 98 26 bd
       0.09417063 0.1262616 -0.05474692 -0.040673222
0002e0 d0 30 8a 3d 25 24 e0 3d 65 69 48 3d c9 f2 d6 3d
       0.067475915 0.10944394 0.048928637 0.10495526
0002f0 8e ff 91 bd 1b 3b fb 3c 18 b6 0d bd 58 0a b5 3d
       -0.07128821 0.030667832 -0.034597486 0.088398635
000300 2a 6a f6 bc e5 2a 8c bb 41 d8 ad bd db 59 94 bd
       -0.03007992 -0.0042775744 -0.08488513 -0.07243701
000310 2a 50 22 3d 39 a9 8e bb e0 32 bd bc 7c b8 71 bc
       0.03962723 -0.004353669 -0.023095548 -0.014753457
000320 8d 71 38 3d 3c 6a 17 3e 0c 14 a8 3d 9e ef 9e 3d
       0.045030165 0.14786619 0.08206949 0.07760547
000330 a7 6a b3 bd 87 ef 0a bd 6a 22 af bd 63 86 cb bb
       -0.08760577 -0.033919837 -0.08551486 -0.0062110885
000340 97 f8 32 3b 8f 41 b1 bd a0 ef a1 3c 8b 85 d2 bd
       0.0027308816 -0.086550824 0.019767582 -0.102793775
000350 cb 3f 6b bd c7 77 cb bd 0b d7 9c bd 54 c2 4b 3c
       -0.057433885 -0.09934955 -0.07658204 0.012436468
000360 0d 92 81 3d 50 de 41 3d 9c 61 63 3c a9 9f 5b bc
       0.06326685 0.047331154 0.013878252 -0.013404765
000370 44 d4 de bc 7c 09 d4 3c 0a ce 05 bd 97 5d 33 3b
       -0.027200826 0.025883429 -0.032667197 0.0027369016
000380 7e aa 87 3b 57 22 06 be 99 80 d4 3d 0d c7 e8 3b
       0.0041401973 -0.13099037 0.103760906 0.007103807
000390 6e de 72 3d 24 44 4a bc e7 56 7c bd 08 38 92 3c
       0.059294157 -0.012345348 -0.061606314 0.017848983
0003a0 65 3e a0 3d f6 15 10 bc 24 87 c6 bb 9d ff bc 3d
       0.07824401 -0.008794298 -0.0060585905 0.09228442
0003b0 78 37 0a be 96 54 12 3d 7b 65 a7 38 cf 2d 31 bd
       -0.13497722 0.0357252 7.982083e-05 -0.043256577
0003c0 9e ef bb 3d 84 28 40 3d 99 02 88 bd c4 a2 da 3d
       0.09176563 0.04691364 -0.066411205 0.10675576
0003d0 9f c4 5d bd 66 54 40 bd 5d 40 3d 3c 2b 7d a2 3d
       -0.05414259 -0.04695549 0.01155099 0.0793403
0003e0 da 62 09 bd ac 27 aa 3d 26 48 3d bd f0 d8 9b bd
       -0.033541538 0.08308348 -0.046211384 -0.07609737
0003f0 2b f0 3c bc 81 4d e3 3c 93 ff 20 3d 8f b8 e5 bd
       -0.01153187 0.027746918 0.039306235 -0.112168424

up1.bias f4 [16]
000000 99 00 9e 3d 49 61 65 3d 7a 79 89 bd 6f a2 58 bc
       0.07714958 0.05600098 -0.06712623 -0.013222321
000010 36 04 d9 bd e3 35 9b 3d 7f a7 e4 bc 1e fc 95 3d
       -0.10596506 0.075786375 -0.0279119 0.07323478
000020 c3 77 af 3d d0 6a 85 bd ec b8 00 3e 9b b6 93 3d
       0.085677646 -0.065145135 0.12570542 0.072125636
000030 6a bb 5c 3d 09 28 db 3d 97 23 c3 3d 3a b1 cc 3d
       0.05388967 0.107009955 0.095282726 0.09994741

dec1.0.weight f4 [16, 32, 3, 3]
000000 db 3d c7 3a 51 9a be 3b ce 62 8a bc db 9d 69 bd
       0.001520093 0.005816736 -0.016892817 -0.05703531
000010 cd 5b 35 bd 51 5d a6 3b ec 5b 19 bd b5 80 53 bd
       -0.044277 0.005077042 -0.03744118 -0.051636416
000020 bd 00 a4 bc c3 54 18 3d 52 63 4a 3d c6 38 6e 3c
       -0.020019883 0.03719021 0.049411125 0.014539903
000030 03 11 89 3d 87 c7 8e 3c e9 f9 ca bc c1 7b a0 3d
       0.06692698 0.017429126 -0.02477737 0.07836104
000040 ae 31 aa 3c 26 eb 17 3d ea d6 32 bd bd 2a 46 3d
       0.020775642 0.03708949 -0.04366199 0.048380602
000050 54 00 df 3c ed 65 3a 3d ca 2d 85 3d d9 7c 2b 3d
       0.027221836 0.04550736 0.06502874 0.04186711
000060 ce cb 62 3d 5c 49 88 bc 4c be 46 3d 3e fc cd bc
       0.055370145 -0.016636543 0.048521325 -0.025144693
000070 61 df 05 bd 48 07 bc 3c 0d f2 89 3d cc 10 0b 3d
       -0.032683734 0.02295269 0.06735621 0.033951566
000080 f0 6c 8e ba 75 67 8a bd b5 0d 88 bb 34 bf c6 3c
       -0.0010866206 -0.06758014 -0.0041520246 0.024261095
000090 b5 12 af bc 5b 97 4a bd c1 6c 14 3d 23 8e 9b 3a
       -0.021371225 -0.04946075 0.03623653 0.0011867922
0000a0 68 01 dc bc 0b 94 60 bd e4 99 0e bd f0 ad 19 3c
       -0.02685614 -0.054828685 -0.03481473 0.009379849
0000b0 94 cf c7 3c 5c 64 57 3c cd f9 36 bc 64 b0 22 3c
       0.024390973 0.013146486 -0.011167956 0.00992975
0000c0 88 14 9e 3c 84 41 35 bd 09 d1 0f 3d ba 71 13 3d
       0.0192969 -0.044251934 0.03511146 0.03599713
0000d0 79 fe 68 3d 39 43 4b 3d b8 ba 5e bd c0 8e c1 3c
       0.05688331 0.049624655 -0.054377288 0.023627639
0000e0 e0 ad 5b bd bd 9f 09 3d f5 9a ae 3c 67 d9 71 bb
       -0.053632617 0.033599604 0.021314124 -0.0036903264
0000f0 66 e8 c7 3c 79 79 ca bb 2b b2 3d bd 54 b6 6a 3d
       0.024402808 -0.0061790315 -0.046312492 0.057302788
000100 c5 fe cc 3c dd df dc 3c f4 b7 af 3c 2f 25 e0 3c
       0.025023827 0.026962215 0.02145002 0.02736148
000110 8b a3 18 bd 9d 38 e7 3c fc 37 18 3d 7e 17 5e bb
       -0.03726534 0.028225238 0.037162766 -0.0033888514
000120 0c a7 d7 bc 34 04 80 3d 01 77 d5 3c 2b df 01 bb
       -0.026324771 0.06250802 0.026057722 -0.0019816856
000130 d8 52 4c 3d e6 aa 2c bd bf 71 5a bb 44 bf 2c 3d
       0.049883693 -0.04215517 -0.0033331958 0.042174593
000140 ae e7 ad 3c c9 1e 65 bd cc 71 53 3d bc 8d 87 3c
       0.021228638 -0.055937562 0.051622197 0.016547076
000150 18 c7 ae bb 38 a9 0c 3d 10 1f 76 3d f8 62 aa 3b
       -0.0053337924 0.034341067 0.060088217 0.0051997863
000160 9d bf 19 bc ab 91 52 3d 90 03 7c bc 2c 04 8c 3d
       -0.009384063 0.05140845 -0.015381709 0.06836733
000170 8b de 0f 3d 88 56 0c bd fe 04 81 3b ab 18 81 3d
       0.035124343 -0.03426221 0.0039373627 0.06303533
000180 2b 39 42 3d 3c 87 e0 3c 5d 47 de bc e3 96 40 bd
       0.0474178 0.027408235 -0.027133638 -0.047018897
000190 87 64 24 bd 71 31 5d bd 1c 6d 23 bd 5d 5b ac 3c
       -0.040134933 -0.05400223 -0.039898977 0.02103966
0001a0 08 4b 7c bc 9e 57 74 3d 4b f5 55 3d b6 a5 cd bc
       -0.015398748 0.05965387 0.052235883 -0.025103431
0001b0 5c 66 87 3d be 3c c5 3c 34 8e c2 bc 91 76 25 3d
       0.066113204 0.024076816 -0.023749448 0.040396277
0001c0 b4 6a f3 3c 0d 58 b9 bc 62 2a f4 3b f8 ab 63 bc
       0.029713966 -0.022624994 0.0074513415 -0.013895981
0001d0 da f2 35 bc d2 6a 09 bd 64 6c e4 3c ea e6 6b 3d
       -0.011105264 -0.033549137 0.027883716 0.057593264
0001e0 09 8e 00 bd 7c 81 1d bd b5 d6 db 3c d1 17 bf bb
       -0.031385455 -0.038453564 0.026835779 -0.0058316966
0001f0 c5 35 80 3c be 87 34 3b d8 80 21 3c 1a 78 10 bd
       0.01565064 0.002754673 0.009857379 -0.035270788
000200 bd b7 62 3d b5 ff 5a bd 5d 0d 21 3c 9f 2c ac bb
       0.055351008 -0.053466517 0.009829846 -0.0052543427
000210 63 a7 3f 3d d0 22 11 bc 60 96 08 3d c0 5b 72 bc
       0.04679049 -0.008858398 0.033346534 -0.014792383
000220 3b 17 4b 3d 60 d9 13 bc 4a 8e a6 3d 1f c4 03 bc
       0.0495827 -0.009023994 0.08132608 -0.008042364
000230 34 e4 01 bb 53 98 13 3c 8f e1 06 3d 2a 68 c2 bc
       -0.0019819858 0.009008485 0.032929953 -0.02373131
000240 2d 85 3c 3d 60 57 6f 3d 32 69 82 3d ec 3b 91 3d
       0.046025444 0.058432937 0.06367721 0.07091507
000250 3a 51 3d 3c f3 13 fb bb b8 d0 99 bc 7c a4 c7 3c
       0.01155501 -0.0076622902 -0.018776283 0.024370424
000260 f7 b9 c0 3b 30 ee 04 bd 71 4d d0 bc 24 d5 a0 bb
       0.0058815437 -0.032453716 -0.025427552 -0.004908221
000270 8b dc 93 3c e2 ae e2 ba 8e 2e 82 3c 23 40 de bc
       0.018049499 -0.0017294551 0.01589134 -0.027130192
000280 d3 b5 de 3b 86 e5 52 bb ae f2 1c 3c a7 20 e1 3b
       0.0067965775 -0.0032180264 0.009579344 0.0068703475
000290 e7 de ec bc 73 b2 6c 3d 12 0a 20 3d 5f 66 55 3d
       -0.028914882 0.05778737 0.039072104 0.05209958
0002a0 73 8c 7b 3c f4 14 32 3d 22 ca 03 3d 45 2f 42 3c
       0.01535331 0.043477014 0.03217519 0.01185209
0002b0 29 18 27 3e 18 76 40 3d 45 7f 4a 3d 23 da 0a 3e
       0.1631781 0.046987623 0.04943778 0.13559775
0002c0 a3 c4 2f 3d 1b 48 6d bd 5f 6c 11 3e 24 66 1b 3e
       0.042912137 -0.057930093 0.14201497 0.15175682
0002d0 f1 e3 58 3d a5 68 70 3d f4 50 c8 3c 87 b3 1a 3d
       0.052951757 0.058693547 0.024452664 0.037768867
0002e0 af be 3d 3d ca ad 2f bc 88 05 c3 3d b9 1a c6 3d
       0.04632443 -0.010722587 0.095225394 0.09673066
0002f0 7d 92 38 3b f3 b1 2b 3e 6d 0a 12 3e fb a8 c9 3d
       0.0028163486 0.16767101 0.1426179 0.098466836
000300 1f 4d e2 3d 04 54 39 3e 87 63 8c 3d 26 80 56 3d
       0.11049866 0.18098456 0.06854921 0.052368306
000310 92 69 55 3b 3d 46 df bc 76 c5 8e bd ab 0b da 3c
       0.0032564146 -0.027255172 -0.069712564 0.026616892
000320 86 b7 6f bd 0f f0 a6 bd 5c 86 f7 bc 97 53 d7 bc
       -0.05852463 -0.08151256 -0.030215435 -0.026284976
000330 ae d6 0f 3d 30 ac be bc 51 46 74 3b d9 34 05 bd
       0.035116844 -0.023275465 0.0037273357 -0.032521103
000340 3c 82 1d 3d 81 08 30 3d 6c 8d 8c bb f1 8b 86 bc
       0.03845428 0.04297686 -0.0042893197 -0.016424151
000350 02 50 bc bc 06 63 22 3d 53 a2 71 bd a5 0e d5 bc
       -0.02298737 0.039645217 -0.058992695 -0.02600796
000360 f1 6f ae 3c 41 7c 8b 3b e8 79 f8 ba 87 87 97 3d
       0.021293612 0.0042567556 -0.0018957229 0.07398897
000370 5b 8e d3 3c 75 5c 29 3d da 58 ac 3d 15 7f 64 3c
       0.025824716 0.04134794 0.084153846 0.013946314
000380 5f a3 a6 3d ae 20 44 3d 68 c1 66 3d 07 5a 24 3d
       0.08136629 0.04788273 0.05633679 0.04012492
000390 5e 08 68 ba 82 fc e3 bc 0f 7f 99 3c 16 b7 eb bc
       -0.00088513445 -0.027830366 0.018737344 -0.028773826
0003a0 f1 a2 9a 3d 5c 27 9b 3d 7b 82 79 3c a7 92 93 3d
       0.0755061 0.075758666 0.015228863 0.07205706
0003b0 05 a9 98 3d 3a 50 3f 3c 35 fd 96 3c 0c 6f a4 3d
       0.07454113 0.011676842 0.018431285 0.08028993
0003c0 3d 2a a2 3c 8a 33 b9 3d d3 9e 3c 3d 6e e1 42 3c
       0.019795531 0.090430334 0.046049904 0.011894567
0003d0 c2 3b 10 bd 93 6c db 3c a4 a0 5e 3c c4 c4 96 bc
       -0.03521324 0.02678517 0.013588104 -0.018404372
0003e0 5f b4 63 3b 99 29 9b 3b a5 b1 b9 bb d5 ff 41 bd
       0.003474496 0.0047351834 -0.005666929 -0.04736312
0003f0 dd 71 0b 3d 29 3b a4 3d 86 2e ae 3d dc 92 d9 3c
       0.034044135 0.080190964 0.085049674 0.026559286

dec1.0.bias f4 [16]
000000 1a ac 46 3d 88 64 31 bd a4 cf 91 3d b5 ad 3c bd
       0.048503973 -0.043308765 0.071196824 -0.046064097
000010 c3 c9 91 3d 95 cb c1 3d e0 83 a6 3d 47 20 a1 3d
       0.07118561 0.09462658 0.08130622 0.078674845
000020 2b 47 5c bc 9e 4e 8d bd 99 68 a1 bc 99 66 41 bd
       -0.013444702 -0.06899761 -0.019703196 -0.047216985
000030 22 a9 9d 3d 29 a7 09 3d 4f 09 2c bc 33 f5 46 3d
       0.07698275 0.033606682 -0.010500266 0.048573684

dec1.2.weight f4 [16, 16, 3, 3]
000000 42 a5 af 3c d5 93 86 bc cc 1b 1e bd 0d eb 5d bd
       0.021441106 -0.016427914 -0.038600728 -0.05417924
000010 87 a4 99 3c 88 73 94 3c 9e 9f aa 3b e6 9f 99 bd
       0.01875521 0.018121496 0.005207016 -0.07501201
000020 14 f9 d7 3c f4 35 01 3d 0a 80 1c 3c 04 b8 40 bc
       0.026363887 0.031545594 0.009552011 -0.011762623
000030 97 7c 7a 3d f0 a3 dd 3c ae 91 8b bd f0 9e 21 3b
       0.061153974 0.02705571 -0.068148956 0.0024661385
000040 79 00 47 bd fe b0 4a 3c 20 67 bb 3d 92 8e 79 3d
       -0.048584435 0.0123713 0.09150529 0.06092698
000050 c7 72 2a 3d e3 83 7e 3d ca c2 c2 3d 5c 3f 85 3d
       0.041613366 0.062137496 0.09509809 0.065062255
000060 c2 64 a8 3d da 48 52 bd df b8 c4 3d 0e 2b 72 3d
       0.08222343 -0.051339008 0.09605574 0.05912309
000070 17 64 88 bd f8 05 75 3d ce fa 81 bd 4b bc 81 3c
       -0.066597156 0.059820145 -0.06346665 0.015836855
000080 62 b8 51 bd 1a 3e 08 3d f1 39 bb 3c 89 21 35 bd
       -0.05120123 0.03326235 0.022854777 -0.044221435
000090 60 e4 53 b9 56 16 9c bc 54 00 6c 3d 77 61 a8 3c
       -0.00020207604 -0.01905362 0.0576175 0.020554287
0000a0 1d 60 14 3d 10 60 83 3c 37 54 b1 3d fd d2 8d bd
       0.036224473 0.016037017 0.08658641 -0.069250084
0000b0 ae 78 1c 3d 52 00 bf 3d 66 32 f3 3c fe a1 66 3d
       0.038201027 0.09326233 0.029687118 0.05630683
0000c0 39 b7 38 3d bc e3 a9 bc 3d fe 73 bc e2 97 0e 3d
       0.04509661 -0.020738475 -0.014892158 0.034812815
0000d0 be 06 4f 3d ad 97 18 3d 53 1c c2 bc 6e b9 52 bd
       0.05054354 0.037254024 -0.023695147 -0.05144637
0000e0 e4 96 a5 3d 02 50 ee bc 02 7f a1 bc f4 b6 c8 bc
       0.08085421 -0.029090885 -0.019713882 -0.024501301
0000f0 a4 cc b7 3c 6d a9 ab 3d c5 66 66 3d 00 ad 37 3d
       0.022436447 0.08381925 0.056250352 0.04484272
000100 88 11 ab bc c2 b8 32 bd f8 4c a2 3d 40 43 87 3d
       -0.020882383 -0.04363323 0.07924837 0.06604624
000110 14 13 95 3c 2d 7b 45 bd 3f f0 fd bb 6e b1 b1 3d
       0.018197574 -0.048213173 -0.007749587 0.0867642
000120 7d 06 5a bd 52 4b 99 3d ea 04 a0 3d 29 ff 47 3b
       -0.053228844 0.07485069 0.07813437 0.0030517078
000130 9c 7a 8a ba c5 6e 1f bd da 32 b5 3d f4 99 7e 3d
       -0.0010565105 -0.038923997 0.0884759 0.06215854
000140 ec f2 87 bd e4 5c d3 bc f7 64 04 3d 23 11 cf bc
       -0.066381305 -0.02580113 0.03232285 -0.025276726
000150 91 c2 a2 bd 08 60 12 bd 52 47 29 3d 7c 8b 2a 3c
       -0.07947267 -0.035736114 0.041327782 0.010409232
000160 37 a3 6d 3d 7d e3 e7 3c 69 1a 7d bc 2d 24 fe 38
       0.058016982 0.028306717 -0.015448191 0.00012118402
000170 4f 17 6a 3d 06 41 4f 3d 7c 2b b6 3c 1f 2c 86 3c
       0.057151135 0.05059912 0.022237532 0.01637846
000180 60 f4 82 39 e6 ab 88 3b 08 27 6e 3d 62 5f 24 bd
       0.00024977606 0.0041708825 0.05814269 -0.040130027
000190 64 ef 28 3d ab 4b c0 3d ef 61 8e bd 8f ed 2e 3c
       0.041243926 0.093894325 -0.06952273 0.010676756
0001a0 99 87 64 bd c6 48 fc 3c be 32 9a 3d b0 ef cb bb
       -0.05579338 0.03079642 0.075292096 -0.0062236413
0001b0 3f d4 78 3d 1e a7 1b 3d 69 ed c6 3d 96 e1 3b 3c
       0.06074929 0.038001172 0.09713251 0.011467358
0001c0 a9 ff 52 bd 78 bc a5 bc b6 c7 92 3d 50 40 e5 bb
       -0.051513348 -0.02023147 0.07166998 -0.006996192
0001d0 48 a4 16 bd ae bb 02 bb e1 ac 16 be 9f 73 02 be
       -0.036777765 -0.0019948292 -0.14714386 -0.12739418
0001e0 bc 74 22 bd 1d 87 ec bd 41 2d 3a 3d 28 7d ca 3c
       -0.039662108 -0.11549208 0.045453314 0.024717882
0001f0 38 f7 b2 bd e6 5a 0c bd e2 b1 a4 3d 37 8a 90 3d
       -0.087385595 -0.034266375 0.08041741 0.070576124
000200 9e 8d 24 3d 24 8d e9 3c e6 e6 09 bd 35 ff 5c 3d
       0.04017412 0.028509684 -0.033667468 0.053954322
000210 16 c2 c7 bc b8 e0 50 3d 0b ec 7c 3d 04 a6 3d 3d
       -0.02438454 0.05099556 0.061748546 0.046300903
000220 a2 e3 c1 3d 4c d8 88 bb 6b 5f 3c bd 49 d2 d3 3d
       0.09467246 -0.004176175 -0.045989435 0.10342843
000230 48 50 98 3d 47 72 99 bb 93 a1 98 3d 4a b5 92 3d
       0.074371874 -0.0046828124 0.07452693 0.071634844
000240 93 c9 be bd ab b1 9b bd 7b db f1 bd b0 27 8c bd
       -0.09315791 -0.07602247 -0.11809441 -0.06843507
000250 9e f2 bf bd 25 1a 90 bd fc de 0a bd d0 36 13 bd
       -0.093724474 -0.07036237 -0.03390406 -0.035940945
000260 66 5b 31 3d ef 00 e8 bd 3c c7 6a bd 28 44 c8 3c
       0.043300055 -0.11328303 -0.05731891 0.024446562
000270 f3 a1 1f bc 32 69 e5 bc 16 c6 e6 bd 7c c0 bc bd
       -0.009743202 -0.028004263 -0.11268251 -0.09216401
000280 14 5c a7 bd 0b 8f f9 bd 15 c5 2c 3d 53 d1 3a 3d
       -0.081718594 -0.121854864 0.04218014 0.045609783
000290 e0 b2 5b bd e0 b8 69 3c 63 fa b2 3d 63 fc 6d 3d
       -0.053637385 0.014265269 0.08739164 0.058102023
0002a0 f1 7f 11 bd a0 38 16 3d 9a f7 34 b8 26 ca b2 3c
       -0.035522405 0.036675096 -4.314594e-05 0.021824908
0002b0 44 49 89 3d 56 08 e2 3a 1f eb a1 bd 4b c8 49 bd
       0.067034274 0.0017244916 -0.07906174 -0.04926328
0002c0 02 8f 86 bd 70 7a f1 bc db 20 88 3d c6 87 c1 bc
       -0.06570245 -0.029477328 0.06646892 -0.023624312
0002d0 83 52 c9 bd af a2 ca bd 6c 8c eb bd d5 ea c2 bd
       -0.09830191 -0.09894311 -0.11501393 -0.09517447
0002e0 d0 af d5 bd 72 a8 c9 bd 66 d9 1f bd d5 c8 69 bd
       -0.10433924 -0.098465815 -0.039025687 -0.057076294
0002f0 bf 37 87 bd b4 50 67 bd 2a 11 c1 3d 71 3a bc 3c
       -0.066024296 -0.05647345 0.09427102 0.022977086
000300 01 5f 32 bc c5 c8 7b bc 1a 30 7a 3c e7 f9 a0 3c
       -0.0108869085 -0.015367691 0.015270257 0.019650413
000310 ee e0 3c 3d 2f 55 dd bc ec 86 41 3d 16 31 90 3c
       0.046112947 -0.027018158 0.047247812 0.017601531
000320 fb 06 0b 3d aa 1b b9 3c b7 8d 60 3d fe 0c ef 3b
       0.033942204 0.022596199 0.05482265 0.00729525
000330 29 56 57 bd 52 0a 87 3d 18 03 c4 3d 2a 91 89 3d
       -0.052572403 0.06593765 0.095709026 0.06717141
000340 11 1a 2c 3d 3c b1 1b 3d 86 c0 43 3d a3 2b a8 bc
       0.042017046 0.03801082 0.047791027 -0.02052862
000350 2b 47 46 3d 7b 7c 8a 3d a7 d5 27 3c 40 28 b1 3d
       0.048407715 0.06762024 0.01024381 0.08650255
000360 71 3c 1d bd e3 a6 e6 bd ee 19 9e bd 9a b4 8a bc
       -0.03838772 -0.112623 -0.077197894 -0.01693182
000370 8d 1c 8a bd 85 0f e6 bd ba d7 bd bd 17 33 d1 bd
       -0.06743727 -0.11233429 -0.09269662 -0.10214823
000380 7f e5 57 bc 8a f3 7e 3d 00 02 dd bb a7 20 83 bd
       -0.013177275 0.062243976 -0.006744623 -0.06402712
000390 df 74 78 bc 0a b9 5c 3d 88 b8 9a bc f5 51 79 3c
       -0.015164583 0.053887405 -0.01888682 0.015217294
0003a0 ca 52 54 bd 37 9e 20 bd 74 b3 e1 bd a0 cb e1 bc
       -0.051836766 -0.039213385 -0.11020556 -0.027562916
0003b0 8b f2 f8 bd 0d 0f 82 bd a1 28 5f bd 15 5f 93 bd
       -0.121556364 -0.06350527 -0.054482106 -0.0719587
0003c0 e9 ea af 3c 20 9d f8 bd 66 c7 2b bc e3 83 b0 3c
       0.021474319 -0.12139344 -0.010484552 0.021547263
0003d0 b6 6b 7d 3c 27 15 9c 3c 1f 21 bb 3d c1 1a 79 bc
       0.015467575 0.019053055 0.09137177 -0.015204133
0003e0 e2 17 95 bb f6 78 95 bd d1 96 40 3d 5f 96 97 bd
       -0.004549966 -0.07298462 0.04701883 -0.07401728
0003f0 18 fd a8 3d 3c 22 0b bc f5 e1 ab 3d e4 a8 73 bd
       0.08251399 -0.008492049 0.08392707 -0.05948724
